…
30/49 [=================>............] - ETA: 0s - loss: 6.3430e-04 - acc: 1.000049/49 [==============================] - 1s - loss: 9.2861e-04 - acc: 1.0000 - val_loss: 0.7372 - val_acc: 0.7273
--------------------------------------------------------------------------------
Initial input shape: (None, 1, 50, 50)
--------------------------------------------------------------------------------
Layer (name)                  Output Shape                  Param #             
--------------------------------------------------------------------------------
Convolution2D (convolution2d) (None, 50, 50, 50)            1300                
Activation (activation)       (None, 50, 50, 50)            0                   
Convolution2D (convolution2d) (None, 50, 46, 46)            62550               
Activation (activation)       (None, 50, 46, 46)            0                   
MaxPooling2D (maxpooling2d)   (None, 50, 23, 23)            0                   
Dropout (dropout)             (None, 50, 23, 23)            0                   
Convolution2D (convolution2d) (None, 100, 23, 23)           125100              
Activation (activation)       (None, 100, 23, 23)           0                   
Convolution2D (convolution2d) (None, 100, 19, 19)           250100              
Activation (activation)       (None, 100, 19, 19)           0                   
MaxPooling2D (maxpooling2d)   (None, 100, 9, 9)             0                   
Dropout (dropout)             (None, 100, 9, 9)             0                   
Flatten (flatten)             (None, 8100)                  0                   
Dense (dense)                 (None, 1250)                  10126250            
Activation (activation)       (None, 1250)                  0                   
Dense (dense)                 (None, 2)                     2502                
Activation (activation)       (None, 2)                     0                   
--------------------------------------------------------------------------------
Total params: 10567802
--------------------------------------------------------------------------------
None
18/18 [==============================] - 0s
             precision    recall  f1-score   support

          0       0.70      0.70      0.70        10
          1       0.62      0.62      0.62         8
…
